…
        [1, 1, 1, 1, 1, 1, 1, 1, 1, 1, 1, 1, 0, 0, 0, 0, 0, 0, 0],
        [1, 1, 1, 1, 1, 1, 1, 1, 1, 1, 1, 1, 1, 0, 0, 0, 0, 0, 0],
        [1, 1, 1, 1, 1, 1, 1, 1, 1, 1, 1, 1, 1, 1, 0, 0, 0, 0, 0],
        [1, 1, 1, 1, 1, 1, 1, 1, 1, 1, 1, 1, 1, 1, 1, 0, 0, 0, 0],
        [1, 1, 1, 1, 1, 1, 1, 1, 1, 1, 1, 1, 1, 1, 1, 1, 0, 0, 0],
        [1, 1, 1, 1, 1, 1, 1, 1, 1, 1, 1, 1, 1, 1, 1, 1, 1, 0, 0],
        [1, 1, 1, 1, 1, 1, 1, 1, 1, 1, 1, 1, 1, 1, 1, 1, 1, 1, 0],
        [1, 1, 1, 1, 1, 1, 1, 1, 1, 1, 1, 1, 1, 1, 1, 1, 1, 1, 1]],
       device='cuda:0')
(Pdb) model
TransformerModel(
  (input_embedding_layer): EmbeddingLayer(
    (lookup_table): Embedding(31104, 512)
  )
  (output_embedding_layer): EmbeddingLayer(
    (lookup_table): Embedding(28998, 512)
  )
  (input_positional_enc_layer): PositionalEncodingLayer(
    (dropout_layer): Dropout(p=0.1, inplace=False)
  )
  (output_positional_enc_layer): PositionalEncodingLayer(
    (dropout_layer): Dropout(p=0.1, inplace=False)
  )
  (encoder_stack): EncoderStack(
    (encoder_layers): ModuleList(
      (0): EncoderLayer(
        (self_attn_module): MultiHeadedAttentionModule(
          (w_q): Linear(in_features=512, out_features=512, bias=True)
          (w_k): Linear(in_features=512, out_features=512, bias=True)
          (w_v): Linear(in_features=512, out_features=512, bias=True)
          (linear_layer): Linear(in_features=512, out_features=512, bias=True)
          (dropout_layer): Dropout(p=0.1, inplace=False)
        )
        (self_attn_sublayer): Sublayer(
          (norm_layer): LayerNorm()
          (dropout_layer): Dropout(p=0.1, inplace=False)
        )
        (pos_ff_sublayer): Sublayer(
          (workhorse): PositionwiseFeedForwardNetwork(
            (linear_layer_1): Linear(in_features=512, out_features=2048, bias=True)
            (relu): ReLU(inplace=True)
            (linear_layer_2): Linear(in_features=2048, out_features=512, bias=True)
            (dropout_layer): Dropout(p=0.1, inplace=False)
          )
          (norm_layer): LayerNorm()
          (dropout_layer): Dropout(p=0.1, inplace=False)
        )
      )
    )
    (norm_layer): LayerNorm()
  )
  (decoder_stack): DecoderStack(
    (decoder_layers): ModuleList(
      (0): DecoderLayer(
        (self_attn_module): MultiHeadedAttentionModule(
          (w_q): Linear(in_features=512, out_features=512, bias=True)
          (w_k): Linear(in_features=512, out_features=512, bias=True)
          (w_v): Linear(in_features=512, out_features=512, bias=True)
          (linear_layer): Linear(in_features=512, out_features=512, bias=True)
          (dropout_layer): Dropout(p=0.1, inplace=False)
        )
        (self_attn_sublayer): Sublayer(
          (norm_layer): LayerNorm()
          (dropout_layer): Dropout(p=0.1, inplace=False)
        )
        (cross_attn_module): MultiHeadedAttentionModule(
          (w_q): Linear(in_features=512, out_features=512, bias=True)
          (w_k): Linear(in_features=512, out_features=512, bias=True)
          (w_v): Linear(in_features=512, out_features=512, bias=True)
          (linear_layer): Linear(in_features=512, out_features=512, bias=True)
          (dropout_layer): Dropout(p=0.1, inplace=False)
        )
        (cross_attn_sublayer): Sublayer(
          (norm_layer): LayerNorm()
          (dropout_layer): Dropout(p=0.1, inplace=False)
        )
        (pos_ff_sublayer): Sublayer(
          (workhorse): PositionwiseFeedForwardNetwork(
            (linear_layer_1): Linear(in_features=512, out_features=2048, bias=True)
            (relu): ReLU(inplace=True)
            (linear_layer_2): Linear(in_features=2048, out_features=512, bias=True)
            (dropout_layer): Dropout(p=0.1, inplace=False)
          )
          (norm_layer): LayerNorm()
          (dropout_layer): Dropout(p=0.1, inplace=False)
        )
      )
    )
    (norm_layer): LayerNorm()
  )
  (linear_and_softmax_layers): LinearAndSoftmaxLayers(
    (linear_layer): Linear(in_features=512, out_features=28998, bias=True)
    (softmax_layer): LogSoftmax(dim=-1)
  )
)
(Pdb) batch.src.shape
torch.Size([16, 20])
(Pdb) s = batch.src
> /ocean/projects/cis230090p/npawar/research/transformer-research-code/train_model.py(134)run_train_epoch()
-> batch.tgt_shifted_right,
(Pdb) src = batch.src
(Pdb) emb = model.input_embedding_layer(src)
(Pdb) emb.shape
torch.Size([16, 20, 512])
…
